…
Number of parameters : 3510

Complete Model : 
DeepStatisticalSolver(
  (phi_to_list): ModuleList(
    (0): Phi_to()
    (1): Phi_to()
    (2): Phi_to()
    (3): Phi_to()
    (4): Phi_to()
    (5): Phi_to()
    (6): Phi_to()
    (7): Phi_to()
    (8): Phi_to()
    (9): Phi_to()
  )
  (phi_from_list): ModuleList(
    (0): Phi_from()
    (1): Phi_from()
    (2): Phi_from()
    (3): Phi_from()
    (4): Phi_from()
    (5): Phi_from()
    (6): Phi_from()
    (7): Phi_from()
    (8): Phi_from()
    (9): Phi_from()
  )
  (psi_list): ModuleList(
    (0): Psi(
      (mlp): MLP(
        (mlp): Sequential(
          (0): Linear(in_features=16, out_features=5, bias=True)
          (1): ReLU()
          (2): Linear(in_features=5, out_features=5, bias=True)
        )
      )
    )
    (1): Psi(
      (mlp): MLP(
        (mlp): Sequential(
          (0): Linear(in_features=16, out_features=5, bias=True)
          (1): ReLU()
          (2): Linear(in_features=5, out_features=5, bias=True)
        )
      )
    )
    (2): Psi(
      (mlp): MLP(
        (mlp): Sequential(
          (0): Linear(in_features=16, out_features=5, bias=True)
          (1): ReLU()
          (2): Linear(in_features=5, out_features=5, bias=True)
        )
      )
    )
    (3): Psi(
      (mlp): MLP(
        (mlp): Sequential(
          (0): Linear(in_features=16, out_features=5, bias=True)
          (1): ReLU()
          (2): Linear(in_features=5, out_features=5, bias=True)
        )
      )
    )
    (4): Psi(
      (mlp): MLP(
        (mlp): Sequential(
          (0): Linear(in_features=16, out_features=5, bias=True)
          (1): ReLU()
          (2): Linear(in_features=5, out_features=5, bias=True)
        )
      )
    )
    (5): Psi(
      (mlp): MLP(
        (mlp): Sequential(
          (0): Linear(in_features=16, out_features=5, bias=True)
          (1): ReLU()
          (2): Linear(in_features=5, out_features=5, bias=True)
        )
      )
    )
    (6): Psi(
      (mlp): MLP(
        (mlp): Sequential(
          (0): Linear(in_features=16, out_features=5, bias=True)
          (1): ReLU()
          (2): Linear(in_features=5, out_features=5, bias=True)
        )
      )
    )
    (7): Psi(
      (mlp): MLP(
        (mlp): Sequential(
          (0): Linear(in_features=16, out_features=5, bias=True)
          (1): ReLU()
          (2): Linear(in_features=5, out_features=5, bias=True)
        )
      )
    )
    (8): Psi(
      (mlp): MLP(
        (mlp): Sequential(
          (0): Linear(in_features=16, out_features=5, bias=True)
          (1): ReLU()
          (2): Linear(in_features=5, out_features=5, bias=True)
        )
      )
    )
    (9): Psi(
      (mlp): MLP(
        (mlp): Sequential(
          (0): Linear(in_features=16, out_features=5, bias=True)
          (1): ReLU()
          (2): Linear(in_features=5, out_features=5, bias=True)
        )
      )
    )
  )
  (decoder_list): ModuleList(
    (0): Decoder(
      (mlp): MLP(
        (mlp): Sequential(
          (0): Linear(in_features=5, out_features=5, bias=True)
          (1): ReLU()
          (2): Linear(in_features=5, out_features=1, bias=True)
        )
      )
    )
    (1): Decoder(
      (mlp): MLP(
        (mlp): Sequential(
          (0): Linear(in_features=5, out_features=5, bias=True)
          (1): ReLU()
          (2): Linear(in_features=5, out_features=1, bias=True)
        )
      )
    )
    (2): Decoder(
      (mlp): MLP(
        (mlp): Sequential(
          (0): Linear(in_features=5, out_features=5, bias=True)
          (1): ReLU()
          (2): Linear(in_features=5, out_features=1, bias=True)
        )
      )
    )
    (3): Decoder(
      (mlp): MLP(
        (mlp): Sequential(
          (0): Linear(in_features=5, out_features=5, bias=True)
          (1): ReLU()
          (2): Linear(in_features=5, out_features=1, bias=True)
        )
      )
    )
    (4): Decoder(
      (mlp): MLP(
        (mlp): Sequential(
          (0): Linear(in_features=5, out_features=5, bias=True)
          (1): ReLU()
          (2): Linear(in_features=5, out_features=1, bias=True)
        )
      )
    )
    (5): Decoder(
      (mlp): MLP(
        (mlp): Sequential(
          (0): Linear(in_features=5, out_features=5, bias=True)
          (1): ReLU()
          (2): Linear(in_features=5, out_features=1, bias=True)
        )
      )
    )
    (6): Decoder(
      (mlp): MLP(
        (mlp): Sequential(
          (0): Linear(in_features=5, out_features=5, bias=True)
          (1): ReLU()
          (2): Linear(in_features=5, out_features=1, bias=True)
        )
      )
    )
    (7): Decoder(
      (mlp): MLP(
        (mlp): Sequential(
          (0): Linear(in_features=5, out_features=5, bias=True)
          (1): ReLU()
          (2): Linear(in_features=5, out_features=1, bias=True)
        )
      )
    )
    (8): Decoder(
      (mlp): MLP(
        (mlp): Sequential(
          (0): Linear(in_features=5, out_features=5, bias=True)
          (1): ReLU()
          (2): Linear(in_features=5, out_features=1, bias=True)
        )
      )
    )
    (9): Decoder(
      (mlp): MLP(
        (mlp): Sequential(
          (0): Linear(in_features=5, out_features=5, bias=True)
          (1): ReLU()
          (2): Linear(in_features=5, out_features=1, bias=True)
        )
      )
    )
  )
  (mse_loss): MSELoss()
)}
